…
Current training session folder is /home/damian/Desktop/python-venv/MaixduinoAI/training/content/model/2024-03-06_15-22-09


[<axelerate.networks.yolo.backend.utils.custom.Yolo_Precision object at 0x7f2e04454310>, <axelerate.networks.yolo.backend.utils.custom.Yolo_Recall object at 0x7f2e0458c950>]
Model: "yolo"
__________________________________________________________________________________________________
 Layer (type)                Output Shape                 Param #   Connected to
==================================================================================================
 input_1 (InputLayer)        [(None, 224, 320, 3)]        0         []

 conv1_pad (ZeroPadding2D)   (None, 226, 322, 3)          0         ['input_1[0][0]']

 conv1 (Conv2D)              (None, 112, 160, 32)         864       ['conv1_pad[0][0]']

 conv1_bn (BatchNormalizati  (None, 112, 160, 32)         128       ['conv1[0][0]']
 on)

 conv1_relu (ReLU)           (None, 112, 160, 32)         0         ['conv1_bn[0][0]']

 conv_dw_1 (DepthwiseConv2D  (None, 112, 160, 32)         288       ['conv1_relu[0][0]']
 )

 conv_dw_1_bn (BatchNormali  (None, 112, 160, 32)         128       ['conv_dw_1[0][0]']
 zation)

 conv_dw_1_relu (ReLU)       (None, 112, 160, 32)         0         ['conv_dw_1_bn[0][0]']

 conv_pw_1 (Conv2D)          (None, 112, 160, 64)         2048      ['conv_dw_1_relu[0][0]']

 conv_pw_1_bn (BatchNormali  (None, 112, 160, 64)         256       ['conv_pw_1[0][0]']
 zation)

 conv_pw_1_relu (ReLU)       (None, 112, 160, 64)         0         ['conv_pw_1_bn[0][0]']

 conv_pad_2 (ZeroPadding2D)  (None, 114, 162, 64)         0         ['conv_pw_1_relu[0][0]']

 conv_dw_2 (DepthwiseConv2D  (None, 56, 80, 64)           576       ['conv_pad_2[0][0]']
 )

 conv_dw_2_bn (BatchNormali  (None, 56, 80, 64)           256       ['conv_dw_2[0][0]']
 zation)

 conv_dw_2_relu (ReLU)       (None, 56, 80, 64)           0         ['conv_dw_2_bn[0][0]']

 conv_pw_2 (Conv2D)          (None, 56, 80, 128)          8192      ['conv_dw_2_relu[0][0]']

 conv_pw_2_bn (BatchNormali  (None, 56, 80, 128)          512       ['conv_pw_2[0][0]']
 zation)

 conv_pw_2_relu (ReLU)       (None, 56, 80, 128)          0         ['conv_pw_2_bn[0][0]']

 conv_dw_3 (DepthwiseConv2D  (None, 56, 80, 128)          1152      ['conv_pw_2_relu[0][0]']
 )

 conv_dw_3_bn (BatchNormali  (None, 56, 80, 128)          512       ['conv_dw_3[0][0]']
 zation)

 conv_dw_3_relu (ReLU)       (None, 56, 80, 128)          0         ['conv_dw_3_bn[0][0]']

 conv_pw_3 (Conv2D)          (None, 56, 80, 128)          16384     ['conv_dw_3_relu[0][0]']

 conv_pw_3_bn (BatchNormali  (None, 56, 80, 128)          512       ['conv_pw_3[0][0]']
 zation)

 conv_pw_3_relu (ReLU)       (None, 56, 80, 128)          0         ['conv_pw_3_bn[0][0]']

 conv_pad_4 (ZeroPadding2D)  (None, 58, 82, 128)          0         ['conv_pw_3_relu[0][0]']

 conv_dw_4 (DepthwiseConv2D  (None, 28, 40, 128)          1152      ['conv_pad_4[0][0]']
 )

 conv_dw_4_bn (BatchNormali  (None, 28, 40, 128)          512       ['conv_dw_4[0][0]']
 zation)

 conv_dw_4_relu (ReLU)       (None, 28, 40, 128)          0         ['conv_dw_4_bn[0][0]']

 conv_pw_4 (Conv2D)          (None, 28, 40, 256)          32768     ['conv_dw_4_relu[0][0]']

 conv_pw_4_bn (BatchNormali  (None, 28, 40, 256)          1024      ['conv_pw_4[0][0]']
 zation)

 conv_pw_4_relu (ReLU)       (None, 28, 40, 256)          0         ['conv_pw_4_bn[0][0]']

 conv_dw_5 (DepthwiseConv2D  (None, 28, 40, 256)          2304      ['conv_pw_4_relu[0][0]']
 )

 conv_dw_5_bn (BatchNormali  (None, 28, 40, 256)          1024      ['conv_dw_5[0][0]']
 zation)

 conv_dw_5_relu (ReLU)       (None, 28, 40, 256)          0         ['conv_dw_5_bn[0][0]']

 conv_pw_5 (Conv2D)          (None, 28, 40, 256)          65536     ['conv_dw_5_relu[0][0]']

 conv_pw_5_bn (BatchNormali  (None, 28, 40, 256)          1024      ['conv_pw_5[0][0]']
 zation)

 conv_pw_5_relu (ReLU)       (None, 28, 40, 256)          0         ['conv_pw_5_bn[0][0]']

 conv_pad_6 (ZeroPadding2D)  (None, 30, 42, 256)          0         ['conv_pw_5_relu[0][0]']

 conv_dw_6 (DepthwiseConv2D  (None, 14, 20, 256)          2304      ['conv_pad_6[0][0]']
 )

 conv_dw_6_bn (BatchNormali  (None, 14, 20, 256)          1024      ['conv_dw_6[0][0]']
 zation)

 conv_dw_6_relu (ReLU)       (None, 14, 20, 256)          0         ['conv_dw_6_bn[0][0]']

 conv_pw_6 (Conv2D)          (None, 14, 20, 512)          131072    ['conv_dw_6_relu[0][0]']

 conv_pw_6_bn (BatchNormali  (None, 14, 20, 512)          2048      ['conv_pw_6[0][0]']
 zation)

 conv_pw_6_relu (ReLU)       (None, 14, 20, 512)          0         ['conv_pw_6_bn[0][0]']

 conv_dw_7 (DepthwiseConv2D  (None, 14, 20, 512)          4608      ['conv_pw_6_relu[0][0]']
 )

 conv_dw_7_bn (BatchNormali  (None, 14, 20, 512)          2048      ['conv_dw_7[0][0]']
 zation)

 conv_dw_7_relu (ReLU)       (None, 14, 20, 512)          0         ['conv_dw_7_bn[0][0]']

 conv_pw_7 (Conv2D)          (None, 14, 20, 512)          262144    ['conv_dw_7_relu[0][0]']

 conv_pw_7_bn (BatchNormali  (None, 14, 20, 512)          2048      ['conv_pw_7[0][0]']
 zation)

 conv_pw_7_relu (ReLU)       (None, 14, 20, 512)          0         ['conv_pw_7_bn[0][0]']

 conv_dw_8 (DepthwiseConv2D  (None, 14, 20, 512)          4608      ['conv_pw_7_relu[0][0]']
 )

 conv_dw_8_bn (BatchNormali  (None, 14, 20, 512)          2048      ['conv_dw_8[0][0]']
 zation)

 conv_dw_8_relu (ReLU)       (None, 14, 20, 512)          0         ['conv_dw_8_bn[0][0]']

 conv_pw_8 (Conv2D)          (None, 14, 20, 512)          262144    ['conv_dw_8_relu[0][0]']

 conv_pw_8_bn (BatchNormali  (None, 14, 20, 512)          2048      ['conv_pw_8[0][0]']
 zation)

 conv_pw_8_relu (ReLU)       (None, 14, 20, 512)          0         ['conv_pw_8_bn[0][0]']

 conv_dw_9 (DepthwiseConv2D  (None, 14, 20, 512)          4608      ['conv_pw_8_relu[0][0]']
 )

 conv_dw_9_bn (BatchNormali  (None, 14, 20, 512)          2048      ['conv_dw_9[0][0]']
 zation)

 conv_dw_9_relu (ReLU)       (None, 14, 20, 512)          0         ['conv_dw_9_bn[0][0]']

 conv_pw_9 (Conv2D)          (None, 14, 20, 512)          262144    ['conv_dw_9_relu[0][0]']

 conv_pw_9_bn (BatchNormali  (None, 14, 20, 512)          2048      ['conv_pw_9[0][0]']
 zation)

 conv_pw_9_relu (ReLU)       (None, 14, 20, 512)          0         ['conv_pw_9_bn[0][0]']

 conv_dw_10 (DepthwiseConv2  (None, 14, 20, 512)          4608      ['conv_pw_9_relu[0][0]']
 D)

 conv_dw_10_bn (BatchNormal  (None, 14, 20, 512)          2048      ['conv_dw_10[0][0]']
 ization)

 conv_dw_10_relu (ReLU)      (None, 14, 20, 512)          0         ['conv_dw_10_bn[0][0]']

 conv_pw_10 (Conv2D)         (None, 14, 20, 512)          262144    ['conv_dw_10_relu[0][0]']

 conv_pw_10_bn (BatchNormal  (None, 14, 20, 512)          2048      ['conv_pw_10[0][0]']
 ization)

 conv_pw_10_relu (ReLU)      (None, 14, 20, 512)          0         ['conv_pw_10_bn[0][0]']

 conv_dw_11 (DepthwiseConv2  (None, 14, 20, 512)          4608      ['conv_pw_10_relu[0][0]']
 D)

 conv_dw_11_bn (BatchNormal  (None, 14, 20, 512)          2048      ['conv_dw_11[0][0]']
 ization)

 conv_dw_11_relu (ReLU)      (None, 14, 20, 512)          0         ['conv_dw_11_bn[0][0]']

 conv_pw_11 (Conv2D)         (None, 14, 20, 512)          262144    ['conv_dw_11_relu[0][0]']

 conv_pw_11_bn (BatchNormal  (None, 14, 20, 512)          2048      ['conv_pw_11[0][0]']
 ization)

 conv_pw_11_relu (ReLU)      (None, 14, 20, 512)          0         ['conv_pw_11_bn[0][0]']

 conv_pad_12 (ZeroPadding2D  (None, 16, 22, 512)          0         ['conv_pw_11_relu[0][0]']
 )

 conv_dw_12 (DepthwiseConv2  (None, 7, 10, 512)           4608      ['conv_pad_12[0][0]']
 D)

 conv_dw_12_bn (BatchNormal  (None, 7, 10, 512)           2048      ['conv_dw_12[0][0]']
 ization)

 conv_dw_12_relu (ReLU)      (None, 7, 10, 512)           0         ['conv_dw_12_bn[0][0]']

 conv_pw_12 (Conv2D)         (None, 7, 10, 1024)          524288    ['conv_dw_12_relu[0][0]']

 conv_pw_12_bn (BatchNormal  (None, 7, 10, 1024)          4096      ['conv_pw_12[0][0]']
 ization)

 conv_pw_12_relu (ReLU)      (None, 7, 10, 1024)          0         ['conv_pw_12_bn[0][0]']

 conv_dw_13 (DepthwiseConv2  (None, 7, 10, 1024)          9216      ['conv_pw_12_relu[0][0]']
 D)

 conv_dw_13_bn (BatchNormal  (None, 7, 10, 1024)          4096      ['conv_dw_13[0][0]']
 ization)

 conv_dw_13_relu (ReLU)      (None, 7, 10, 1024)          0         ['conv_dw_13_bn[0][0]']

 conv_pw_13 (Conv2D)         (None, 7, 10, 1024)          1048576   ['conv_dw_13_relu[0][0]']

 conv_pw_13_bn (BatchNormal  (None, 7, 10, 1024)          4096      ['conv_pw_13[0][0]']
 ization)

 conv_pw_13_relu (ReLU)      (None, 7, 10, 1024)          0         ['conv_pw_13_bn[0][0]']

 up_sampling2d (UpSampling2  (None, 14, 20, 1024)         0         ['conv_pw_13_relu[0][0]']
 D)

 concatenate (Concatenate)   (None, 14, 20, 1536)         0         ['conv_pw_11_relu[0][0]',
                                                                     'up_sampling2d[0][0]']

 detection_layer_1 (Conv2D)  (None, 7, 10, 75)            76875     ['conv_pw_13_relu[0][0]']

 detection_layer_2 (Conv2D)  (None, 14, 20, 75)           115275    ['concatenate[0][0]']

 reshape (Reshape)           (None, 7, 10, 3, 25)         0         ['detection_layer_1[0][0]']

 reshape_1 (Reshape)         (None, 14, 20, 3, 25)        0         ['detection_layer_2[0][0]']

==================================================================================================
Total params: 3421014 (13.05 MB)
Trainable params: 3399126 (12.97 MB)
Non-trainable params: 21888 (85.50 KB)
__________________________________________________________________________________________________
Layers to use in total_val_recall callback monitoring: ['val_reshape_recall', 'val_reshape_1_recall']
…
